…
oduleDict(kwargs)   def linear() -&gt; torch.nn.Linear:     return torch.nn.Linear(10, 10)   def conv() -&gt; torch.nn.Conv2d:     return torch.nn.Conv2d(3, 3, 3)   my_module = module(     layer1=module(sublayer1=linear(), sublayer2=conv()),     layer2=module(sublayer1=linear(), activation=torch.nn.ReLU(), sublayer2=conv()),     layer3=module(sublayer1=linear(), sublayer2=conv()),     layer4=module(         sublayer1=linear(),         sublayer2=module(first=linear(), second=conv(), last=module(only=linear())),     ), ) my_module Out[2]: <pre>ModuleDict(\n  (layer1): ModuleDict(\n    (sublayer1): Linear(in_features=10, out_features=10, bias=True)\n    (sublayer2): Conv2d(3, 3, kernel_size=(3, 3), stride=(1, 1))\n  )\n  (layer2): ModuleDict(\n    (sublayer1): Linear(in_features=10, out_features=10, bias=True)\n    (activation): ReLU()\n    (sublayer2): Conv2d(3, 3, kernel_size=(3, 3), stride=(1, 1))\n  )\n  (layer3): ModuleDict(\n    (sublayer1): Linear(in_features=10, out_features=10, bias=True)\n    (sublayer2): Conv2d(3, 3, kernel_size=(3, 3), stride=(1, 1))\n  )\n  (layer4): ModuleDict(\n    (sublayer1): Linear(in_features=10, out_features=10, bias=True)\n    (sublayer2): ModuleDict(\n      (first): Linear(in_features=10, out_features=10, bias=True)\n      (second): Conv2d(3, 3, kernel_size=(3, 3), stride=(1, 1))\n      (last): ModuleDict(\n        (only): Linear(in_features=10, out_features=10, bias=True)\n      )\n    )\n  )\n)</pre> In\u00a0[3]: Copied! <pre>ff.mpath.search(\"**/[cls:torch.nn.Linear]\", my_module)\n</pre> ff.mpath.search(\"**/[cls:torch.nn.Linear]\", my_module) Out[3]: <pre>MPathCollection([\n    &lt;0: layer4.sublayer1: Linear&gt;,\n    &lt;1: layer4.sublayer2.first: Linear&gt;,\n    &lt;2: layer4.sublayer2.last.only: Linear&gt;,\n    
…
